src/scripts/diagnostic_data/latlon_fluxmodel.npy (npy, 480 bytes, 1 tensors)

array f8 [2, 22]
00000000: 80d5 c643 110e 6040 e128 d2ed 9e22 6040
00000010: 7b0e 3587 f801 6040 9d37 d263 6c64 6040
00000020: 4938 eae6 b239 6040 90f3 3264 2c37 6040
00000030: 1672 f297 5f34 6040 e986 e2f6 7629 6040
00000040: 7f90 d55e 5081 6040 94d6 83e3 396d 6040
00000050: e988 a642 ddb7 6040 a281 5e87 269a 6040
00000060: aa52 f030 325d 6040 f726 71f1 da49 6040
00000070: e688 5d45 a607 6040 8cdc 888d 5d27 6040
00000080: 5b43 b64c fa1c 6040 e992 f233 a4bc 5f40
00000090: 4c8c e68d b0f4 5f40 bc0c 6c37 6e2d 6040
000000a0: 20dc e2e4 ae3c 6040 cbba 07e9 c703 6040
000000b0: dde7 d706 f8a1 fdbf fb82 ee0c a087 05c0
000000c0: ab5e ce89 1326 f2bf c9e3 2020 24a5 04c0
000000d0: dfef a24d 0c17 fdbf 69d9 26bb f39d 04c0
000000e0: 225a 469e e741 04c0 7322 fe0c 479f e33f
000000f0: da81 f896 00d6 f3bf f386 d4ef 4732 e7bf
00000100: 6655 f993 7e0d fdbf 0144 d537 8434 f4bf
00000110: 9eb6 9a0c 188b efbf 1d7b 337b 1dde d63f
00000120: 4987 7d6d 63b1 01c0 16f4 5825 8873 10c0
00000130: a19b 71fc 8c32 08c0 8bbd 6453 9996 f1bf
00000140: b464 f927 3ab9 05c0 3cd0 f79c 124f 10c0
00000150: 3b39 d451 270a 10c0 b3a1 dbd2 a696 fbbf
128.43960751375926 129.0819005112344 128.0615879093419 131.13823119218878 129.80308862443988 129.72416887237023 129.6366691336886 129.29577202075532
132.04106084548764 131.4133164954152 133.7457593205102 132.8172032209232 130.9123768514449 130.30797645664254 128.23904674786098 129.23017002802624
128.90555415724052 126.94752215088705 127.82327601923424 129.41970416167703 129.8963493758065 128.11815310964298 -1.8520431773490522 -2.6912232408798196
-1.1342959769298584 -2.580635310176579 -1.8181269676851952 -2.5771250363570073 -2.532180058023429 0.6131930593265466 -1.239746656159801 -0.7248878177817616
-1.8157945423348223 -1.2628214055041556 -0.9857292410067264 0.3573068335662571 -2.2116154245312925 -4.112824042848862 -3.02468297216133 -1.0992673165854707
-2.715442955301649 -4.077219441056567 -4.009915617540453 -1.724280189193547
