src/scripts/diagnostic_data/xy_fluxmodel.npy (npy, 480 bytes, 1 tensors)

array f8 [2, 22]
2.550595724719894 0.5440765609940166 4.068394212250639 1.0594764308238611 0.9036933591380731 0.7411782140224696 0.881589258503805 2.70392800611241
-0.6359198545568749 1.6868932335994216 0.03119597157345555 1.2190835757774483 2.1064446411610036 2.9324482052121232 1.0862162758603258 0.41919421773492943
0.9433196355899324 -1.2525665231722496 0.32548879428265143 0.07101736220061208 -3.2445564916396843 1.6302327197866653 -3.4160567257551175 -3.570755530568046
-2.0833466196958135 -2.2252181555675485 -2.3640189633187836 -3.1091760363776992 -2.992522294369493 -1.174993030243363 -0.6899928172809182 -0.32020616696397447
-0.8895750442882862 -0.032028173959621216 -0.2629463160886113 -0.0972941560559954 -4.397405183133363 -5.0423482046884835 -4.511561377562876 -4.6491734717233495
-5.110247384691321 -4.103910793525032 -4.583468885158218 -3.304851327985224
00000000: 37ea 37bb 9e67 0440 94a9 7f3f 1369 e13f
00000010: a168 e321 0946 1040 3457 d48e 9df3 f03f
00000020: 7488 e355 0eeb ec3f 887e b75f bbb7 e73f
00000030: 60eb 38ad fa35 ec3f 29ee a701 a5a1 0540
00000040: 045d 4698 7459 e4bf 8673 62c2 83fd fa3f
00000050: c022 b336 d6f1 9f3f c8e0 90c7 5d81 f33f
00000060: bdf7 e4a5 ffd9 0040 bbcc 9467 a775 0740
00000070: 8b3f 5351 2461 f13f 3b01 f6fb 13d4 da3f
00000080: 9711 11a9 ac2f ee3f 856d d131 830a f4bf
00000090: 3424 aaf3 ced4 d43f 828d 19a0 312e b23f
000000a0: 7fef ac08 daf4 09c0 50a5 85e7 6e15 fa3f
000000b0: 4c31 738c 1554 0bc0 3768 8e46 e890 0cc0
000000c0: f89a eea1 b1aa 00c0 4506 252d 3fcd 01c0
000000d0: be9f 34c6 82e9 02c0 35fe 8daf 97df 08c0
000000e0: 5ff1 5687 aff0 07c0 5cc5 de7d c5cc f2bf
000000f0: 4c49 16d1 6b14 e6bf 499e c501 427e d4bf
00000100: 44ca 5115 6677 ecbf 7112 6a2f ff65 a0bf
00000110: aa12 0dc9 1cd4 d0bf 3c38 5a12 45e8 b8bf
00000120: 5546 6362 f196 11c0 b4b9 e853 5d2b 14c0
00000130: f61d eabe d60b 12c0 26ee 39ee c098 12c0
00000140: 01e0 beb0 e470 14c0 d190 4f97 676a 10c0
00000150: d7f3 0fde 7855 12c0 acb5 9ee4 5570 0ac0
